models/gan_discriminator.pth (torch, 537388 bytes, 5 tensors)

model.0.weight f4 [512, 3]
0.45733094 0.32752648 0.44216233 -0.41589192 -0.38547623 0.5006946 0.08902738 0.21313407
0.26309857 -0.4421253 -0.222305 0.016528336 -0.13679452 -0.06269847 -0.4732551 0.38655418
-0.012412871 -0.10773571 -0.25591987 -0.0022246297 -0.1530903 -0.047077045 -0.35729477 0.36432925
-0.35782084 0.29733583 -0.03554176 -0.12596917 -0.39460856 -0.1879828 0.00023396808 0.26899996
-0.45989516 0.26698375 -0.11690476 -0.13072106 -0.11947635 0.45191932 -0.3266894 -0.2952223
0.059337802 -0.30925983 0.41168466 -0.12044865 0.39682811 -0.4802388 0.5555046 0.5245205
0.4296411 -0.5067886 0.12719767 -0.35059407 0.20342952 0.3337172 0.3795363 0.24283122
-0.31594408 0.04807041 -0.013580291 0.38590246 0.5306896 -0.2563953 0.06484823 0.20829011
0.35169753 -0.20261075 -0.28163445 -0.22297066 0.01407963 -0.06325819 0.15023445 -0.31345552
0.33696225 0.17552386 0.46803162 0.17570034 0.39529374 -0.1535236 -0.40282732 -0.31869993
0.40957892 0.111764364 -0.08969699 0.35158822 -0.50386345 -0.17173305 0.28477788 0.4947026
-0.055458657 0.40346488 -0.2787802 0.32095167 0.34839272 -0.5407169 0.15146783 0.38653216
-0.5011123 -0.011918276 0.07343231 -0.4300688 0.058369216 0.34328374 -0.369456 0.50305825
-0.42262527 0.4171887 0.5332344 -0.30086866 0.5175832 -0.35530496 0.49177438 0.16276936
0.2891549 -0.18347444 0.3484436 -0.37358677 0.18396652 0.4012052 -0.16893329 -0.43558478
-0.19429839 0.1176782 -0.38132244 -0.28627396 -0.531008 0.4248534 0.52254647 -0.056571506
-0.53618515 0.56499785 0.14272791 -0.32333818 0.48599127 -0.10757521 0.1428816 0.5427238
-0.4694417 -0.556863 0.27930665 0.16030802 0.062303074 -0.28316057 0.15456948 -0.52238524
-0.0016654517 -0.44988143 -0.47360477 -0.14985502 -0.12788665 -0.16430697 -0.39259154 -0.33923417
0.48246047 0.47273743 0.44933873 -0.3721085 -0.4819947 -0.22145893 0.33222958 -0.01788833
-0.13572279 -0.42906514 -0.35385722 0.23174678 0.013598835 0.39892754 -0.46037152 0.279842
-0.1272857 0.058485694 -0.1751816 0.17742524 0.4899818 -0.3761301 0.2569921 -0.30705497
0.32500046 -0.07284513 0.31325704 -0.5051655 -0.34718922 -0.4758044 -0.4549506 0.3646542
-0.27916145 -0.38229915 -0.47369936 -0.113278724 0.40365583 -0.053401515 -0.3627127 -0.05457594
-0.52701163 -0.17785738 0.5496405 -0.40280887 -0.15705487 0.2170295 -0.075696625 0.54285914
-0.26916227 -0.009875962 0.47619307 0.20756797 0.0012311046 0.16210863 -0.4479182 -0.17580073
0.2949123 -0.09762091 0.27730483 -0.5085076 -0.40702307 0.33168176 -0.52467406 0.13025849
-0.3546503 -0.40063077 0.26654413 0.30326402 0.09561018 0.038196042 0.38242614 -0.45201787
-0.0053911274 0.0068737944 -0.092240736 -0.5538174 -0.56018066 -0.26808724 -0.35570982 -0.12755813
0.12518029 0.42903936 -0.56279117 0.06809255 -0.26458448 -0.20124881 0.33471864 0.053916898
-0.36173958 0.548354 -0.20964356 -0.39592385 0.08990845 0.4439747 -0.44598675 -0.4782941
0.027955044 -0.41346237 0.20041542 0.31702176 0.24537039 0.44244683 -0.514656 0.50558996
00000000: 4827 ea3e 8db1 a73e 1a63 e23e c9ef d4be
00000010: 245d c5be 852d 003f fd53 b63d d13f 5a3e
00000020: dbb4 863e 3f5e e2be eca3 63be 6f66 873c
00000030: dd13 0cbe 0e68 80bd 7e4e f2be 6eea c53e
00000040: 5b5f 4bbc 8aa4 dcbd ee07 83be 18cb 11bb
00000050: b4c3 1cbe dcd3 40bd 57ef b6be 5d89 ba3e
00000060: 4b34 b7be 673c 983e 3d94 11bd 10fe 00be
00000070: 220a cabe 907e 40be 5455 7539 5dba 893e
00000080: 6177 ebbe 18b2 883e c36b efbd bedb 05be
00000090: 04b0 f4bd f861 e73e d543 a7be 6127 97be
000000a0: 320c 733d 4e57 9ebe 55c8 d23e c8ad f6bd
000000b0: 0e2d cb3e dce1 f5be 8d35 0e3f fa46 063f
000000c0: ebf9 db3e e6bc 01bf 1b40 023e 1181 b3be
000000d0: d44f 503e fbdc aa3e 9552 c23e bfa8 783e
000000e0: 6cc3 a1be 7ae5 443d de7f 5ebc 0295 c53e
000000f0: 46db 073f 3f46 83be 26cf 843d 014a 553e
00000100: b311 b43e 3179 4fbe 6432 90be 6c52 64be
00000110: 40ae 663c 838d 81bd 0fd7 193e 3e7d a0be
00000120: 5186 ac3e 87bc 333e d7a1 ef3e caea 333e
00000130: f163 ca3e 4a35 1dbe 623f cebe a32c a3be
00000140: 54b4 d13e b7e4 e43d 0eb3 b7bd 5f03 b43e
00000150: 32fd 00bf cada 2fbe 68ce 913e a949 fd3e
00000160: 9e28 63bd f392 ce3e 47bc 8ebe c753 a43e
00000170: 8860 b23e 6c6c 0abf 621a 1b3e 8be7 c53e
00000180: e548 00bf df44 43bc ae63 963d fa31 dcbe
00000190: 8f14 6f3d e3c2 af3e 5629 bdbe 6dc8 003f
000001a0: 5762 d8be c299 d53e 0d82 083f 750b 9abe
000001b0: 5580 043f 88ea b5be dac9 fb3e 03ad 263e
000001c0: 1c0c 943e b9e0 3bbe 3367 b23e c446 bfbe
000001d0: b861 3c3e c56a cd3e d9fc 2cbe f804 dfbe
000001e0: 28f6 46be 4501 f13d b23c c3be 8092 92be
000001f0: 24f0 07bf 6386 d93e 9bc5 053f 86b7 67bd
00000200: 6e43 09bf b3a3 103f 4427 123e 958c a5be
00000210: d9d3 f83e 6450 dcbd 8e4f 123e f2ef 0a3f
00000220: aa5a f0be 938e 0ebf 4801 8f3e c927 243e
00000230: 8231 7f3d 6cfa 90be 7647 1e3e 0abb 05bf
00000240: 494b daba dc56 e6be 537c f2be 9873 19be
00000250: b8f4 02be 1640 28be c201 c9be 1ab0 adbe
00000260: 0f05 f73e a40a f23e ba0f e63e 0185 bebe
00000270: 02c8 f6be 21c6 62be ff19 aa3e 8c8a 92bc
00000280: eafa 0abe 6dae dbbe c62c b5be 074f 6d3e
00000290: a6cd 5e3c 3b40 cc3e d1b5 ebbe 7347 8f3e
000002a0: 2f57 02be b28e 6f3d ce62 33be f6ae 353e
000002b0: e5de fa3e 2094 c0be 7894 833e 4f36 9dbe
000002c0: 7666 a63e d42f 95bd 3a63 a03e 8752 01bf
000002d0: c9c2 b1be a29c f3be 49ef e8be f5b3 ba3e
000002e0: 40ee 8ebe b7bc c3be b988 f2be adfe e7bd
000002f0: faab ce3e 8cbb 5abd 7bb5 b9be 058b 5fbd
00000300: 3cea 06bf 3f20 36be 3db5 0c3f f73c cebe
00000310: fed2 20be fb3c 5e3e d506 9bbd d1f8 0a3f
00000320: a3cf 89be c9ce 21bc 94cf f33e b38c 543e
00000330: 045d a13a ceff 253e 8955 e5be 1b05 34be
00000340: bffe 963e 79ed c7bd e6fa 8d3e 8e2d 02bf
00000350: 5465 d0be 31d2 a93e 0a51 06bf 7b62 053e
00000360: b994 b5be 7a1f cdbe 7978 883e 6c45 9b3e
00000370: 45cf c33d 7473 1c3d 5ccd c33e e36e e7be
00000380: 0ea8 b0bb 913d e13b b6e8 bcbd fac6 0dbf
00000390: 0068 0fbf bb42 89be 991f b6be 999e 02be
000003a0: 432f 003e 0cab db3e 1513 10bf 1b74 8b3d
000003b0: 9e77 87be 2b14 4ebe 3e60 ab3e f7d7 5c3d
000003c0: ee35 b9be ee60 0c3f cdac 56be 88b6 cabe
000003d0: ec21 b83d a750 e33e 6058 e4be f7e2 f4be
000003e0: fa01 e53c 57b1 d3be b339 4d3e ad50 a23e
000003f0: 6042 7b3e 6488 e23e 7fc0 03bf 586e 013f

model.0.bias f4 [512]
0.159501 0.11474193 -0.5468777 0.18937223 0.04677557 -0.3352018 0.11604448 -0.3679726
-0.11369606 -0.09697279 -0.5779264 0.33407238 0.35893968 -0.17854151 -0.12482923 -0.36432078
0.021074956 0.5661859 -0.44216442 -0.35372525 0.088865586 0.44337022 0.15832424 0.10047606
-0.26856285 -0.3389091 0.49380088 0.096557155 -0.112624645 0.2320245 -0.34617874 -0.37669432
0.03453686 0.3409926 -0.22188114 0.01821883 -0.5360878 -0.18656483 0.29393846 0.3493893
-0.3127504 -0.35447273 0.09128814 0.47251406 -0.54247123 -0.21534172 -0.374651 -0.19587125
0.40480196 0.39102587 0.13933507 0.41064042 -0.56028163 -0.14498782 0.2252213 0.17524032
0.27018055 -0.13753964 0.34708545 0.250142 -0.012498888 -0.31820574 0.13822925 0.26311135
0.2694188 -0.09082593 0.10992911 -0.39815664 -0.56546026 0.18633164 -0.037280742 -0.06447626
-0.4494186 -0.31663802 -0.42603117 0.4982463 -0.11413107 -0.2640663 0.06506498 0.4159619
0.29992056 -0.5678855 -0.048494194 -0.4888174 -0.07586061 -0.22161959 0.46440664 -0.12730485
0.09710516 0.42957252 0.150925 -0.2665659 -0.33016688 0.45847142 -0.47851425 0.24939175
0.5368548 0.027800558 -0.23738042 -0.14412555 0.48147193 0.56210625 -0.5780498 0.32055274
-0.05281914 -0.18096355 0.33684656 -0.09280312 -0.17083229 0.59457827 -0.21161307 0.36824417
-0.46883976 -0.022086939 0.14812492 -0.49968943 -0.4592878 0.38920337 -0.2942915 -0.2944651
0.20512474 0.41423348 -0.023893602 -0.48731348 -0.25305516 0.1768956 -0.14458965 0.413111
-0.33484745 -0.34205782 0.45621237 0.006966904 -0.08681515 0.53433704 0.15388145 -0.1862331
0.12970601 -0.15381825 0.48884764 0.19650026 0.056059603 0.2507869 0.30988285 0.51978236
0.11448959 -0.46901995 0.47464207 0.111640416 -0.512977 0.4436628 -0.41315752 -0.05700645
0.2653838 -0.2579977 -0.5237011 0.16010787 0.4985441 -0.5664277 0.18811977 -0.080394715
0.45232654 -0.4598074 0.52181965 0.31331006 0.2735124 0.10504096 0.39315152 0.52319485
-0.20775183 -0.15917262 0.54134977 -0.3501618 0.17012212 0.14635019 -0.1967522 0.29035702
-0.4200012 -0.033081915 -0.52548057 0.10058645 0.35359633 0.3781606 0.171058 0.34276912
-0.36575842 0.18473032 0.026021073 0.26926082 -0.46184403 0.25740606 0.4016334 -0.10458345
-0.47322735 0.4570908 0.36068648 -0.34769297 0.25446713 0.26176652 -0.4619088 0.36875007
0.253725 0.2524273 0.24100347 0.038033977 -0.2806158 -0.45198405 0.28341997 -0.43159565
-0.18800224 0.32110035 -0.102734506 -0.43163472 0.4239965 0.20555158 -0.120719776 -0.36469302
-0.5112122 0.3434341 -0.07779572 0.5311829 -0.08798063 -0.11368617 0.07300246 0.043676864
0.36371443 0.15180981 -0.114188604 -0.2150477 0.006862826 -0.023889989 0.38304675 -0.58461404
0.27011427 -0.10235936 -0.3879155 0.009837596 0.045628786 0.30323547 0.5035266 0.1015117
0.4300266 -0.4711304 -0.3526236 0.49674082 0.19729133 -0.046367105 -0.2652531 0.1799335
0.20273541 0.46501538 0.07170388 -0.045895703 0.5018408 0.50704205 -0.12362072 -0.31190395
00000000: 3b54 233e d1fd ea3d 2d00 0cbf cbea 413e
00000010: bd97 3f3d 929f abbe baa8 ed3d e866 bcbe
00000020: 7bd9 e8bd ac99 c6bd fcf2 13bf 890b ab3e
00000030: f1c6 b73e 96d3 36be 78a6 ffbd 4188 babe
00000040: 63a5 ac3c 8ff1 103f 6063 e2be 7a1b b5be
00000050: 29ff b53d 6c01 e33e c01f 223e 64c6 cd3d
00000060: 1281 89be 7e85 adbe 78d3 fc3e c2bf c53d
00000070: c0a7 e6bd d597 6d3e 573e b1be 14de c0be
00000080: 8676 0d3d 9596 ae3e cf34 63be a83f 953c
00000090: 0d3d 09bf da0a 3fbe 1a7f 963e 28e3 b23e
000000a0: d220 a0be 737d b5be 47f5 ba3d 5ded f13e
000000b0: 65df 0abf 8a82 5cbe 42d2 bfbe 7992 48be
000000c0: 3442 cf3e 8b34 c83e daad 0e3e 763f d23e
000000d0: 9e6e 0fbf b077 14be 6aa0 663e 3372 333e
000000e0: 1b55 8a3e 31d7 0cbe 2fb5 b13e 9d12 803e
000000f0: 23c8 4cbc ddeb a2be f88b 0d3e 88b6 863e
00000100: 43f1 893e f202 babd 8322 e13d 30db cbbe
00000110: 01c2 10bf b9cd 3e3e b1b3 18bd 210c 84bd
00000120: 321a e6be 611e a2be c220 dabe 241a ff3e
00000130: 8dbd e9bd b333 87be ca40 853d f5f8 d43e
00000140: 308f 993e f260 11bf d9a1 46bd 4646 fabe
00000150: cf5c 9bbd 3ff0 62be b5c6 ed3e 345c 02be
00000160: 12df c63d eef0 db3e 158c 1a3e 537b 88be
00000170: a20b a9be c4bc ea3e d2ff f4be 8d60 7f3e
00000180: 516f 093f ffbd e33c da13 73be a695 13be
00000190: 7d83 f63e 32e6 0f3f 12fb 13bf 7d1f a43e
000001a0: e258 58bd 824e 39be 2777 ac3e 900f bebd
000001b0: a9ee 2ebe 4836 183f 19b1 58be 808a bc3e
000001c0: c40b f0be abef b4bc 0fae 173e 4bd7 ffbe
000001d0: c527 ebbe aa45 c73e 60ad 96be 21c4 96be
000001e0: 380c 523e 6916 d43e 84bc c3bc 2781 f9be
000001f0: 7290 81be 1f24 353e 4f0f 14be 4983 d33e
00000200: 2071 abbe 3422 afbe ab94 e93e a04a e43b
00000210: 24cc b1bd 50ca 083f 1993 1d3e e4b3 3ebe
00000220: a7d1 043e 8882 1dbe 3d4a fa3e 5d37 493e
00000230: c19e 653d 2467 803e f7a8 9e3e 7510 053f
00000240: 8579 ea3d 6223 f0be 4904 f33e bba3 e43d
00000250: 7652 03bf c527 e33e 6289 d3be 987f 69bd
00000260: 63e0 873e 4618 84be 4611 06bf 51f3 233e
00000270: 2c41 ff3e 6801 11bf 78a2 403e fca5 a4bd
00000280: 5897 e73e e06b ebbe f995 053f 2d6a a03e
00000290: d109 8c3e b71f d73d 284b c93e 19f0 053f
000002a0: e5bc 54be 26fe 22be e695 0a3f 6848 b3be
000002b0: 7e34 2e3e d3dc 153e 6979 49be ada9 943e
000002c0: 660a d7be e780 07bd e585 06bf 4500 ce3d
000002d0: 940a b53e 449e c13e d429 2f3e 6f7f af3e
000002e0: b044 bbbe f229 3d3e 252a d53c 8edc 893e
000002f0: d276 ecbe baca 833e e5a2 cd3e d92f d6bd
00000300: db4a f2be ce07 ea3e e6ab b83e d004 b2be
00000310: 8449 823e 4306 863e 4f7f ecbe cfcc bc3e
00000320: 3ee8 813e 273e 813e 9dc9 763e 84c9 1b3d
00000330: e0ac 8fbe 746a e7be 6c1c 913e 1bfa dcbe
00000340: a983 40be 4467 a43e 7866 d2bd 3aff dcbe
00000350: 1216 d93e 1d7c 523e ee3b f7bd 0bb9 babe
00000360: cede 02bf 98d6 af3e 5d53 9fbd 9afb 073f
00000370: 302f b4bd 4bd4 e8bd 5082 953d 83e6 323d
00000380: c738 ba3e 0874 1b3e b7db e9bd 7735 5cbe
00000390: 8fe1 e03b f0b4 c3bc b41e c43e 44a9 15bf
000003a0: 6b4c 8a3e c9a1 d1bd dc9c c6be de2d 213c
000003b0: 40e5 3a3d ae41 9b3e 1fe7 003f 5ee5 cf3d
000003c0: 722c dc3e 0138 f1be 158b b4be d054 fe3e
000003d0: bd06 4a3e 6feb 3dbd 41cf 87be 7d40 383e
000003e0: df99 4f3e 7f16 ee3e 7cd9 923d 22fd 3bbd
000003f0: a378 003f 82cd 013f dc2c fdbd e0b1 9fbe

model.2.weight f4 [256, 512]
-0.025120309 0.018591845 -0.005545436 -0.03762678 -0.02385978 -0.014023617 -0.04146793 0.011283493
0.044331975 -0.044332042 -0.016260503 -0.007071488 -0.009095384 -0.024893338 0.030560387 0.038016237
0.009587642 0.011881279 0.03349337 -0.013295336 -0.010119553 0.0020110202 -0.002052098 -0.012063022
0.0032107607 -0.0072494475 0.012332025 0.03281809 0.005582592 0.036961634 0.043299846 0.022462968
-0.0045973496 0.0389523 0.0250351 0.029352136 -0.016934635 0.0028879629 0.013029878 -0.016295137
-0.02318721 0.012139905 -0.046130437 0.019548709 -0.038937286 -0.041531865 0.016856125 -0.0007878977
0.026229061 -0.016495254 -0.040722884 0.03613151 -0.022503015 0.032141306 -0.008806571 -0.016283976
0.03717726 0.023057196 -0.018921414 0.007827618 0.00400329 0.0059235347 -0.041520763 0.0055786194
0.041679487 0.014070362 0.017063942 0.065577425 0.015391009 -0.0061324667 0.035115335 -0.009947658
-0.014717276 0.006952597 0.041186094 -0.008592625 -0.029356888 -0.025498036 0.036519274 -0.031619105
0.0030054036 -0.020532869 -0.008090071 -0.014964021 0.012160015 0.032166917 -0.01593386 -0.022613147
0.0011292808 -0.045465786 0.045299012 0.030691646 0.013701133 -0.022671977 0.008243475 -0.030200899
-0.016062468 -0.016420217 -0.03236557 0.009121252 -0.0019093207 -0.028172532 -0.0039621056 0.039632056
0.006678797 -0.0008755517 -0.0113343885 0.0022620615 -0.032771546 0.037007503 -0.0037725647 0.033682406
-0.0031545 0.040130496 0.013217648 0.0072345133 -0.0037488225 -0.025807898 -0.034154095 -0.023034759
-0.016304081 0.042716295 0.02135347 0.031651475 -0.03405433 -0.039168064 -0.0427022 -0.032538973
0.03282382 0.011938683 0.015048059 -0.009543918 -0.00019665434 -0.015857317 0.04369082 -0.0057172254
-0.033915237 0.03342729 -0.005744234 -0.045646295 0.029089626 0.03003748 -0.011497119 -0.0032339792
-0.017286662 -0.006753461 -0.013181602 -0.022945374 0.022485048 0.030007105 -0.020857275 -0.04243668
-0.027515722 0.02426393 -0.029271863 0.041795556 0.0015193961 0.0329928 -0.0099754315 -0.037374917
0.043299858 -0.0032996165 -0.02901727 0.012135113 0.01570455 0.033094406 0.04073655 -0.029212287
-0.02714416 0.025942212 -0.03604797 0.036188416 0.0088917585 -0.023515718 0.008015424 0.03133635
0.009951912 -0.023068778 0.027737875 0.022530366 -0.0028751541 -0.011875471 0.03303781 0.04141164
-0.034212932 0.005953884 0.0039893556 0.024259808 0.0024429616 -0.0447442 0.034897767 -0.035350416
-0.0014366186 -0.0031771902 0.0037181596 -0.026742818 0.011895447 0.025254237 0.040435895 -0.009449548
0.028090654 0.001285665 -0.02940181 0.024625726 -0.0075310906 -0.0068172105 -0.03759865 -0.035422143
0.03367122 0.011268076 0.04199854 -0.026020475 -0.0309854 -0.018631186 -0.020246988 0.04835608
-0.03304758 0.031429518 -0.040431056 0.045540947 -0.0069038854 -0.04194167 -0.0035737802 -0.025474796
-0.025628513 -0.028738352 -0.014034927 0.019137586 0.04602313 -0.03008699 -0.023180254 0.017983872
0.034438908 -0.015848065 0.041209523 -0.0016415708 0.010485578 -0.0009536625 -0.026188774 0.03248464
0.0387205 -0.0038071568 -0.0150354095 0.013363594 0.00863952 -0.018319475 -0.013026833 -0.020656662
0.029791642 0.031361118 -0.012838802 0.03410034 -0.042404953 0.014657543 0.021508334 0.0016947803
00000000: 1bc9 cdbc ed4d 983c 7db6 b5bb 8a1e 1abd
00000010: 9675 c3bc 50c3 65bc 47da 29bd 66de 383c
00000020: 7295 353d 8495 35bd bf34 85bc f1b7 e7bb
00000030: ce04 15bc 1ded cbbc c759 fa3c eab6 1b3d
00000040: 7c15 1d3c b2a9 423c 5830 093d aed4 59bc
00000050: 7bcc 25bc 52cb 033b 7e7c 06bb fba3 45bc
00000060: a06b 523b c68c edbb 430c 4a3c 436c 063d
00000070: 2dee b63b 1565 173d 2e5b 313d 4204 b83c
00000080: 5da5 96bb 728c 1f3d 6916 cd3c e473 f03c
00000090: 81ba 8abc fa43 3d3b 457b 553c 617d 85bc
000000a0: 1bf3 bdbc 74e6 463c 45f3 3cbd 9d24 a03c
000000b0: b47c 1fbd 511d 2abd db15 8a3c eb8a 4eba
000000c0: 54de d63c 0e21 87bc 0acd 26bd a2fe 133d
000000d0: 3e58 b8bc 9aa6 033d 7049 10bc f965 85bc
000000e0: 2f47 183d 72e2 bc3c 1501 9bbc 693f 003c
000000f0: 082e 833b 361a c23b ad11 2abd dacc b63b
00000100: 1cb8 2a3d 6087 663c aec9 8b3c 754d 863d
00000110: 922a 7c3c dcf2 c8bb 19d5 0f3d 80fb 22bc
00000120: bb20 71bc 9cd2 e33b c0b2 283d 15c8 0cbc
00000130: db7d f0bc 42e1 d0bc 3c95 153d 0983 01bd
00000140: 4ef6 443b 8c34 a8bc 388c 04bc a72b 75bc
00000150: cd3a 473c 75c1 033d ba87 82bc 353f b9bc
00000160: 6004 943a 553a 3abd 758b 393d 0c6d fb3c
00000170: b87a 603c 95ba b9bc a40f 073c e067 f7bc
00000180: 7095 83bc b183 86bc c391 04bd 4e71 153c
00000190: 2c42 faba 15ca e6bc 8dd4 81bb 3955 223d
000001a0: cfd9 da3b 4885 65ba dfb3 39bc 183f 143b
000001b0: 753b 06bd 2e95 173d 223d 77bb 90f6 093d
000001c0: babb 4ebb e05f 243d d58e 583c 7f0f ed3b
000001d0: ceae 75bb 166b d3bc 2ae5 0bbd 64b3 bcbc
000001e0: 2390 85bc 48f7 2e3d 79ed ae3c faa4 013d
000001f0: 8e7c 0bbd b16e 20bd 81e8 2ebd 9647 05bd
00000200: 4572 063d 779a 433c 228c 763c 185e 1cbc
00000210: ff34 4eb9 34e7 81bc 25f5 323d 9057 bbbb
00000220: b4ea 0abd 0eeb 083d 213a bcbb 9cf7 3abd
00000230: 5e4d ee3c 2911 f63c 6a5e 3cbc 2bf1 53bb
00000240: c29c 8dbc 234c ddbb a5f7 57bc f0f7 bbbc
00000250: 9032 b83c 76d1 f53c e0dc aabc 16d2 2dbd
00000260: a768 e1bc 26c5 c63c 8ccb efbc d131 2b3d
00000270: 7926 c73a 7523 073d fe6f 23bc 7116 19bd
00000280: 315b 313d 613e 58bb a0b5 edbc 5ad2 463c
00000290: d4a6 803c 008e 073d 5edb 263d 9b4e efbc
000002a0: 6e5d debc c384 d43c 09a7 13bd 4e3a 143d
000002b0: bdae 113c 09a4 c0bc 2053 033c 8b5a 003d
000002c0: 580d 233c bcfa bcbc 8a3a e33c 9a91 b83c
000002d0: 156d 3cbb 5691 42bc a852 073d 409f 293d
000002e0: dc22 0cbd cd18 c33b 24b9 823b 81bc c63c
000002f0: 181a 203b b245 37bd f6f0 0e3d 99cb 10bd
00000300: ec4c bcba 6838 50bb 5eac 733b c113 dbbc
00000310: 1fe5 423c f9e1 ce3c 1ca0 253d 47d2 1abc
00000320: 5f1e e63c c283 a83a 11dc f0bc e4bb c93c
00000330: 5ec7 f6bb e862 dfbb 0b01 1abd cf16 11bd
00000340: d5ea 093d bc9d 383c a906 2c3d e428 d5bc
00000350: 18d5 fdbc 6ea0 98bc 03dd a5bc 0611 463d
00000360: e65c 07bd 3dbc 003d 099b 25bd 2589 3a3d
00000370: fd39 e2bb 07cb 2bbd 1536 6abb 85b0 d0bc
00000380: e3f2 d1bc b16c ebbc c0f2 65bc 6dc6 9c3c
00000390: c082 3c3d fe78 f6bc 84e4 bdbc ea52 933c
000003a0: d00f 0d3d cdd3 81bc 51cb 283d fa29 d7ba
000003b0: b4cb 2b3c 35ff 79ba d789 d6bc 9d0e 053d
000003c0: 6399 1e3d 7e81 79bb 1457 76bc faf2 5a3c
000003d0: c68c 0d3c b912 96bc 7f6e 55bc 2938 a9bc
000003e0: 9a0d f43c 8474 003d d759 52bc ccac 0b3d
000003f0: d1b0 2dbd 3126 703c 3f32 b03c 6423 de3a

model.2.bias f4 [256]
0.031762104 -0.054671057 0.0075735473 0.0015578772 0.004236879 -0.015853146 0.05952166 -0.0035613
0.04028574 -0.011225511 0.009549377 -0.035732046 0.040246796 -0.020050896 -0.047616858 -0.04079365
0.04933607 0.008176781 0.019052349 0.019653672 0.0035404488 0.030484349 0.0031541823 -0.008921186
-0.052676324 -0.0017992253 0.0014114988 0.004135985 0.060054097 -0.026439475 0.044702757 -0.031864814
-0.024190137 0.032581475 0.0004308929 -0.01138651 -0.0656863 -0.024661876 -0.027581565 -0.055260636
0.025821619 0.0027875802 -0.05888434 0.011645078 -0.0015612803 -0.00030942337 -0.008974856 0.024382679
-0.001033533 0.0061537502 -0.03460984 0.016592823 0.008609732 0.046287425 0.044143144 -0.082238875
-0.024668682 -0.0025551163 0.035260383 -0.025421264 0.0065168724 0.02938906 0.016136222 -0.05552336
0.008102189 -0.04395617 0.049148474 0.03447018 -0.012847801 -0.011803208 0.022212723 0.026363097
0.05020331 0.04207922 0.018721424 -0.017601188 0.023715964 -0.00036161984 0.0033967053 0.044468943
-0.03650832 0.044624448 0.019124389 -0.024260972 0.0050521363 -0.01475859 0.06457263 0.016219417
0.042568196 -0.005481899 -0.017294267 -0.0010979671 -0.02628196 0.017788371 -0.032764636 -0.056396138
-0.010588937 0.0128612025 0.019011827 -0.018634103 0.058759443 0.03247518 0.0022665572 0.057227094
-0.018694595 -0.042310547 -0.0027958262 -0.05600207 0.0039205835 -0.051410474 -0.016099162 0.030931007
-0.0015551392 -0.007935245 0.0018957573 0.028289612 0.033745963 -0.043847498 0.009301039 0.04971567
-0.020087516 0.029552037 0.021607842 -0.05184972 0.009061657 -0.0117601985 -0.0009829858 -0.0092573855
-0.004333466 -0.038305968 0.026304707 0.014416401 0.024295498 0.037443712 -0.00052797236 -0.044765633
0.037377857 -0.01846633 0.033746455 -0.016167827 -0.043349862 0.024545178 -0.01884899 0.037076257
0.002545217 0.056661494 0.047059532 0.054832533 -0.042793054 0.030880129 0.024915079 0.03295216
-0.011475017 0.024599181 0.0033061008 0.050141234 -0.048825454 0.016880376 -0.04742728 -0.05697537
0.013646281 0.029690376 0.042939536 0.017589828 -0.045733023 -0.051178455 -0.02409721 0.020958036
-0.01367441 -0.016441464 -0.053656075 -0.022037204 0.013955868 0.015692776 0.027122889 0.057688035
-0.021636153 0.015355205 0.022865979 -0.042032566 0.0154597815 0.04328974 -0.01686927 -0.04402323
-0.0015864768 -0.04715164 -0.03902534 0.027729623 0.05279296 -0.007563212 -0.027734118 0.015556828
-0.0032620183 -0.045750264 -0.022453785 -0.038551174 0.028209604 -0.030370539 -0.045932103 -0.00022917724
0.0022311874 0.06814169 0.07050373 0.024833826 0.010056153 -0.021135123 -0.017861957 0.038338732
-0.0165415 -0.04633756 -0.07114046 -0.03320497 0.010305344 -0.05889749 0.0007507439 0.012886091
-0.00082117895 0.0023750993 -0.018130507 0.016010549 -0.007986711 -0.028069414 -0.038588446 -0.0063741314
0.030197056 -0.051217657 0.04375915 -0.034320682 0.036658995 0.041591853 0.01749262 0.025085827
-0.01656238 0.012804268 -0.060806993 0.036060166 0.00800307 -0.05287681 -0.04005754 -0.003295357
-0.038403127 0.04328842 -0.026990186 -0.022255791 -0.014577521 -0.0061441977 0.03349177 -0.012774701
-0.02113342 -0.026843624 0.048827413 0.019312343 0.020519754 -0.04178059 0.030437715 0.021389378
00000000: fb18 023d c2ee 5fbd 852b f83b af31 cc3a
00000010: 84d5 8a3b 75de 81bc fccc 733d b364 69bb
00000020: a902 253d 35eb 37bc fd74 1c3c c45b 12bd
00000030: d3d9 243d c741 a4bc e509 43bd 3e17 27bd
00000040: 9e14 4a3d e8f7 053c ac13 9c3c bd00 a13c
00000050: e006 683b 50ba f93c 66b6 4e3b 2b2a 12bc
00000060: 21c3 57bd fcd3 ebba 0a02 b93a 2887 873b
00000070: 49fb 753d 9997 d8bc 3d1a 373d ae84 02bd
00000080: 652a c6bc 2774 053d 77e9 e139 7c8e 3abc
00000090: 8a86 86bd b407 cabc bcf2 e1bc fa58 62bd
000000a0: dc87 d33c d6af 363b b530 71bd ffca 3e3c
000000b0: e0a3 ccba 1a3a a2b9 460b 13bc 2fbe c73c
000000c0: 9d77 87ba 66a5 c93b 0cc3 0dbd aced 873c
000000d0: d50f 0d3c e297 3d3d 71cf 343d db6c a8bd
000000e0: fa15 cabc bd73 27bb 316d 103d 4140 d0bc
000000f0: 7d8b d53b 53c1 f03c 1c30 843c 766c 63bd
00000100: 0bbf 043c 630b 34bd e94f 493d 9a30 0d3d
00000110: 957f 52bc 3e62 41bc 75f7 b53c 6cf7 d73c
00000120: fca1 4d3d 435b 2c3d ac5d 993c 5e30 90bc
00000130: fb47 c23c cb97 bdb9 429b 5e3b 1125 363d
00000140: c089 15bd 20c8 363d c0aa 9c3c f2be c6bc
00000150: 648c a53b 03ce 71bc a83e 843d 95de 843c
00000160: fd5b 2e3d 80a1 b3bb b5ac 8dbc aae9 8fba
00000170: 444d d7bc ebb8 913c 3634 06bd a3ff 66bd
00000180: 397d 2dbc cbb7 523c b1be 9b3c 8ca6 98bc
00000190: bead 703d b204 053d 858a 143b f566 6a3d
000001a0: 6825 99bc d34d 2dbd 2e3a 37bb 6d62 65bd
000001b0: 3d78 803b ca93 52bd 64e2 83bc 0663 fd3c
000001c0: d0d5 cbba d402 02bc 0f7b f83a 9ebf e73c
000001d0: 3539 0a3d 6f99 33bd 6363 183c a9a2 4b3d
000001e0: 938e a4bc 1d17 f23c ee02 b13c 5f60 54bd
000001f0: 5877 143c d9ad 40bc 88d7 80ba 4aac 17bc
00000200: bfff 8dbb b8e6 1cbd f87c d73c c532 6c3c
00000210: 5a07 c73c 945e 193d a067 0aba 2b5c 37bd
00000220: 8619 193d b346 97bc b939 0a3d 6472 84bc
00000230: a08f 31bd f812 c93c 3269 9abc 46dd 173d
00000240: a8cd 263b e215 683d 7fc1 403d 1498 603d
00000250: c547 2fbd 53f8 fc3c b51a cc3c d8f8 063d
00000260: b601 3cbc 3984 c93c 2bab 583b e560 4d3d
00000270: 33fd 47bd b748 8a3c 1c43 42bd 015f 69bd
00000280: a794 5f3c 3b39 f33c 5ee1 2f3d 8b18 903c
00000290: 8d52 3bbd 80a0 51bd 8367 c5bc 30b0 ab3c
000002a0: a20a 60bc 40b0 86bc 79c6 5bbd 5e87 b4bc
000002b0: 27a7 643c 238e 803c d230 de3c 4a4a 6c3d
000002c0: 4d3e b1bc 6694 7b3c 6f51 bb3c 572a 2cbd
000002d0: 064b 7d3c 9550 313d 6c31 8abc b451 34bd
000002e0: 54f1 cfba 1422 41bd 09d9 1fbd 3c29 e33c
000002f0: 6e3d 583d d2d4 f7bb a932 e3bc 11e2 7e3c
00000300: 96c7 55bb a164 3bbd 00f1 b7bc d6e7 1dbd
00000310: d417 e73c a3cb f8bc 4d23 3cbd 4c4f 70b9
00000320: 1d39 123b df8d 8b3d 4264 903d 4f70 cb3c
00000330: 90c2 243c 9123 adbc 3d53 92bc 1309 1d3d
00000340: 0a82 87bc 74cc 3dbd 17b2 91bd ef01 08bd
00000350: bfd7 283c 7f3e 71bd 92cd 443a 2f20 533c
00000360: 6344 57ba 8ea7 1b3b 6e86 94bc 8e28 833c
00000370: b2da 02bc d4f1 e5bc eb0e 1ebd 17de d0bb
00000380: d15f f73c 9bc9 51bd cb3c 333d d893 0cbd
00000390: be27 163d 385c 2a3d af4c 8f3c cb80 cd3c
000003a0: d4ad 87bc fec8 513c c110 79bd d3b3 133d
000003b0: 4f1f 033c 5b95 58bd 6013 24bd ebf6 57bb
000003c0: 994c 1dbd 334f 313d 861a ddbc c751 b6bc
000003d0: 8ed6 6ebc 4455 c9bb ab2e 093d fb4c 51bc
000003e0: fe1f adbc 29e7 dbbc 41ff 473d eb34 9e3c
000003f0: 0b19 a83c 2022 2bbd 8458 f93c c738 af3c

model.4.weight f4 [1, 256]
0.0001335662 0.00012920276 -0.036330007 0.0016147188 0.026840864 0.024589721 0.04712267 -0.040395427
0.011225496 -0.01395651 -0.024783479 3.323618e-05 0.01627757 -0.04741171 -0.014545176 -0.022469243
0.014326611 0.025840748 -0.0060548843 -0.01725367 0.015523155 0.014011444 -0.00148285 -0.0048968084
-0.011296763 0.033308104 -0.0048778383 0.045401573 0.010950356 -0.0012739758 0.043304913 -0.015957018
0.0028137488 0.00095868605 0.041385576 0.017307367 -0.045787394 -0.040151913 -0.029600225 -0.011441975
-0.039032944 0.03838682 -0.019337336 -0.022347772 -0.010358202 0.042100027 0.0017244733 -0.03099368
0.016321411 0.00574643 -0.027589275 -0.042151228 5.0629897e-05 -4.888517e-05 0.02755069 -8.574894e-05
-0.042965084 -0.011708249 -0.029857343 0.014871077 -0.0036649425 2.7065478e-05 -0.039336275 -0.04930192
-0.022388134 -0.023981925 0.032667235 0.048836086 0.024448227 0.005097738 0.027665056 -0.031934366
0.034522098 0.00032844767 0.025129383 0.00010784241 0.023172967 -0.031810828 -0.026123784 0.0069605126
-0.02662113 0.052835688 0.00356499 -0.00033399035 -0.03209681 -0.0004405498 -6.207479e-05 -0.0370754
2.7302547e-05 -0.04878296 -0.034910604 -0.015246961 -0.023861237 0.031930905 -0.025520798 7.907282e-05
0.03636851 -0.0028696014 0.031660993 0.022965332 -9.958992e-06 0.012235633 0.010800131 0.030400693
0.036897328 -0.014220283 -0.003622619 -0.018890452 0.02497712 -0.019753966 -0.037173968 -0.030142173
-0.047539935 0.047918674 -0.017391814 0.0071321833 0.023562377 -0.012320764 -0.045149878 0.04446362
-0.0065165795 0.04797646 0.01140725 -0.025498828 -0.00085428153 -0.053011876 -0.03503813 0.034849986
0.042997 -0.042677674 -0.053456575 -0.0013240922 0.027656438 -0.0024707962 0.0127433995 -0.0059639267
0.026537202 0.0124590825 5.3700747e-05 -0.007870288 -0.030179078 -0.0004699661 -0.055716418 0.025816588
-0.021207664 0.035661045 0.04061529 0.053448122 -0.052329633 0.02950983 0.0134744095 0.012793631
-0.0043173456 -0.022318816 0.025053307 0.015276702 -0.048840888 0.017995292 -0.0040683844 -0.044700015
2.983145e-05 0.026253995 0.029644452 0.048148274 -0.032310672 -0.031156747 -0.0290254 -0.030486396
0.054469634 0.010732868 -0.03833694 0.015878685 0.0027339072 -0.02808394 -0.0028344512 0.02442246
-0.011874767 -0.0019742693 -0.01923973 -0.024754964 -0.015988806 -0.00039720806 0.02981294 -0.04691909
-0.042510416 -0.013377993 -5.7404974e-05 0.048548926 0.041946907 0.011540779 -0.038781278 4.3005308e-05
-0.018510725 -0.024950074 0.027129406 -0.016468165 0.02362231 4.8289086e-05 -0.049088072 -0.02898204
-0.021035226 0.028419219 0.026752897 -0.03903693 -0.041710082 0.023074055 -0.019984752 0.0114683835
-0.0033619262 -8.1969745e-05 -0.00066986535 0.0099526895 -0.0098570455 -0.034451827 -0.016074717 0.017860927
-0.015242999 -0.04528276 0.020447902 0.009256608 1.3694735e-06 -0.026890887 -0.04399608 -0.019546133
0.056583453 -0.011494173 -0.00076199026 -0.010874433 -0.0075041032 0.01663492 -0.0058829333 -0.008740479
-0.0023709065 -0.05272638 8.101925e-06 0.019982476 -8.38864e-06 -0.006862843 -0.026883066 -0.005762323
2.8814276e-05 0.044106755 0.00843709 -0.047726303 -9.815976e-05 -0.011892767 0.045122687 -0.007842734
0.047551665 -0.044300728 0.008072349 0.017669033 -0.021660509 -0.029258769 -0.00079799426 -0.03375061
00000000: e70d 0c39 9a7a 0739 c6ce 14bd f9a4 d33a
00000010: 5fe1 db3c 6270 c93c b303 413d ad75 25bd
00000020: 25eb 373c d9a9 64bc b906 cbbc 1467 0b38
00000030: 8a58 853c c832 42bd e44e 6ebc 6b11 b8bc
00000040: 29ba 6a3c faaf d33c 0d68 c6bb 9257 8dbc
00000050: d554 7e3c 4190 653c 315c c2ba 6875 a0bb
00000060: 0f16 39bc 146e 083d 46d6 9fbb 00f7 393d
00000070: 1f69 333c 89fb a6ba 7e60 313d 4bb8 82bc
00000080: df66 383b 5550 7b3a ec83 293d 2ec8 8d3c
00000090: 908b 3bbd 5576 24bd 2c7c f2bc 1f77 3bbc
000000a0: 02e1 1fbd 803b 1d3d 5569 9ebc ad12 b7bc
000000b0: 73b5 29bc 1471 2c3d b907 e23a 75e6 fdbc
000000c0: 7bb4 853c 8c4c bc3b e702 e2bc c4a6 2cbd
000000d0: 705b 5438 0d0a 4db8 fcb1 e13c 1dd4 b3b8
000000e0: 28fc 2fbd f5d3 3fbc 6397 f4bc d1a5 733c
000000f0: 882f 70bb ac0a e337 131f 21bd cff0 49bd
00000100: 5267 b7bc be75 c4bc 14ce 053d 5908 483d
00000110: a647 c83c ed0a a73b d4a1 e23c 9ccd 02bd
00000120: 0b67 0d3d 8033 ac39 23dc cd3c 7429 e238
00000130: 3cd5 bd3c 124c 02bd 8c01 d6bc 0315 e43b
00000140: 8e14 dabc 3c6a 583d 9ba2 693b 6d1b afb9
00000150: f277 03bd 98f9 e6b9 262e 82b8 60dc 17bd
00000160: c607 e537 a4d0 47bd 6cfe 0ebd 64ce 79bc
00000170: a478 c3bc fbc9 023d fe10 d1bc e6d3 a538
00000180: 26f7 143d ec0f 3cbb f5ae 013d cb21 bc3c
00000190: 8c15 27b7 f777 483c 08f3 303c e00a f93c
000001a0: a721 173d 31fc 68bc 7669 6dbb 26c0 9abc
000001b0: d19c cc3c 12d3 a1bc bb43 18bd b8ec f6bc
000001c0: 3cb9 42bd 5f46 443d 4779 8ebc 17b5 e93b
000001d0: e305 c13c 08dd 49bc 14ef 38bd 7c1f 363d
000001e0: 0889 d5bb f782 443d 79e5 3a3c ebe2 d0bc
000001f0: ddf1 5fba fb22 59bd 2484 0fbd dcbe 0e3d
00000200: 9f1d 303d c9ce 2ebd 48f5 5abd 298d adba
00000210: c18f e23c 15ed 21bb b1c9 503c 0b6d c3bb
00000220: 8c64 d93c 2e21 4c3c bd3c 6138 61f2 00bc
00000230: 1d3a f7bc c865 f6b9 e636 64bd 4f7d d33c
00000240: b2bb adbc 5111 123d 385c 263d 6bec 5a3d
00000250: 9957 56bd 99be f13c c5c3 5c3c 619c 513c
00000260: 8578 8dbb f3d5 b6bc 983c cd3c 224b 7a3c
00000270: 620d 48bd dd6a 933c 1550 85bb 5d17 37bd
00000280: 8d3e fa37 9e12 d73c ecd8 f23c 2037 453d
00000290: 3258 04bd 6f3c ffbc adc6 edbc 9bbe f9bc
000002a0: 8d1b 5f3d e9d8 2f3c 3207 1dbd 0414 823c
000002b0: 5a2b 333b 4a10 e6bc 33c2 39bb 9c11 c83c
000002c0: 628e 42bc be62 01bb a39c 9dbc ecca cabc
000002d0: f5fa 82bc 5d40 d0b9 443a f43c 3b2e 40bd
000002e0: 671f 2ebd 5f2f 5bbc 1fc6 70b8 3ddb 463d
000002f0: 85d0 2b3d 8915 3d3c 1ed9 1ebd 9960 3438
00000300: cea3 97bc 1964 ccbc 7d3e de3c 3fe8 86bc
00000310: 9383 c13c 038a 4a38 9310 49bd be6b edbc
00000320: 1152 acbc 6ccf e83c e428 db3c 30e5 1fbd
00000330: 31d8 2abd cd05 bd3c 10b7 a3bc e3e5 3b3c
00000340: c353 5cbb 2ce7 abb8 e799 2fba 9b10 233c
00000350: 727f 21bc 5c1d 0dbd 20af 83bc 1451 923c
00000360: c6bd 79bc 6a7a 39bd 5c82 a73c 07a9 173c
00000370: c0ce b735 474a dcbc 3c35 34bd 361f a0bc
00000380: 0dc4 673d 0e52 3cbc 4dc0 47ba ae2a 32bc
00000390: fbe4 f5bb f545 883c 9fc5 c0bb 3a34 0fbc
000003a0: 3661 1bbb 9ef7 57bd 81ed 0737 4ab2 a33c
000003b0: efbc 0cb7 b3e1 e0bb e039 dcbc ded1 bcbb
000003c0: 30b6 f137 49a9 343d b83b 0a3c a87c 43bd
000003d0: 1fdb cdb8 e1d9 42bc 91d2 383d d07e 00bc
000003e0: 89c5 423d ae74 35bd e341 043c a6be 903c
000003f0: 6171 b1bc 16b0 efbc 7d30 51ba 143e 0abd
